02. Deep Learning/02. MLP_train/mlp_weight.pkl (torch_old, 948207 bytes, 6 tensors)

weight f4 [256, 784]
0	0x3bd2fb10	0.0064386204
1	0xbcbb0e15	-0.022833863
2	0x3aa3cda0	0.0012497194
3	0x3c4193c0	0.0118150115
4	0x3d00a18b	0.03140406
5	0x3d0508e5	0.032479186
6	0xbc31bdf2	-0.010848509
7	0x3c20d77c	0.0098170005
8	0xbc4fc620	-0.012681514
9	0xbc726abc	-0.014795955
10	0xbc49cb2e	-0.012316508
11	0x3a6c20c0	0.00090075657
12	0xbb043161	-0.0020171034
13	0x3bbcf10a	0.005766039
14	0x3cd19a28	0.025586203
15	0x3c966d87	0.018362774
16	0xbcd7b19c	-0.026329808
17	0x3aa36d00	0.0012468398
18	0x3b9eb1f8	0.004842993
19	0x3cf7a58e	0.03023031
20	0x3cd3f9ea	0.025876004
21	0x3c35177c	0.011052962
22	0xbcd9d228	-0.026589468
23	0xbc537a98	-0.012907647
24	0x3cc1715c	0.023613624
25	0x3cc105fe	0.023562428
26	0x3bc2b6b8	0.005942192
27	0xbc7eef2a	-0.015559951
28	0xbc751b20	-0.01496008
29	0xbb89a110	-0.0042001083
30	0xbcdc94a3	-0.026926344
31	0xbc974610	-0.018466026
32	0x3d00a614	0.031408384
33	0xbb48e7d3	-0.0030655756
34	0xbb17c0c7	-0.0023155676
35	0x3d01eb54	0.031718567
36	0x3bdac0f6	0.006675835
37	0xbcad9e46	-0.021193635
38	0x3c8601b4	0.016358234
39	0xbc27ab4a	-0.01023371
40	0x3c426e73	0.011867153
41	0x3d06a042	0.032867678
42	0x3cd5d379	0.026101815
43	0x3c50f91b	0.012754704
44	0x3ccb8f0d	0.024848485
45	0x3be7bc44	0.0070720036
46	0x3a361d2a	0.0006947095
47	0x3c87652d	0.016527737
48	0x3b57da4a	0.0032936507
49	0x3b896319	0.0041927216
50	0x3b710efb	0.003678261
51	0x3cc8d9ae	0.02451786
52	0x3d0679b7	0.03283092
53	0x3cd6eba0	0.026235402
54	0x3ce42e56	0.027854126
55	0x3cab34b6	0.020899158
56	0xbc321edc	-0.010871615
57	0xbba50e40	-0.005037099
58	0xbce1ed4f	-0.027578978
59	0x3aab0e6f	0.0013050566
60	0xbbaea950	-0.005330242
61	0x3c90d5bc	0.017680041
62	0xbc866e2d	-0.016409958
63	0xbb854f4c	-0.004068291
64	0x3cc5776e	0.0241048
65	0xbc451b51	-0.0120304385
66	0xbc9a2208	-0.018815055
67	0xbc817bf2	-0.015806172
68	0x3cc6c96f	0.024265973
69	0x3c03af55	0.008037408
70	0x3c9c1d13	0.019056832
71	0x3c4b0138	0.012390427
72	0x3cacf706	0.021113884
73	0x3c54041b	0.012940432
74	0xbced0afe	-0.028935906
75	0xbce77f9e	-0.028259095
76	0xbce47bf1	-0.027891131
77	0xbc0dd92b	-0.008657734
78	0xbcee0f03	-0.029059893
79	0x3ca9949c	0.020700745
80	0x3b26951e	0.002541847
81	0xbba84afd	-0.0051358924
82	0xbb1db970	-0.0024066828
83	0xbcacdecc	-0.021102332
84	0x3d0085d3	0.031377625
85	0x3cacab96	0.021077912
86	0xbc1396c4	-0.009008113
87	0x3b3d6bcd	0.0028903366
88	0xbcf31e7b	-0.02967762
89	0x3d0b13ac	0.033954307
90	0xbbfe350f	-0.00775779
91	0x3ce7e337	0.028306587
92	0x3cb2968b	0.0218003
93	0xbce7ef6e	-0.028312411
94	0xbc9d7ce3	-0.01922459
95	0x3bc3e67b	0.005978403
96	0xbbbb830c	-0.005722409
97	0x3bb72872	0.0055895383
98	0xbd67fd36	-0.056637965
99	0xbc684755	-0.014177163
100	0xbd52ed94	-0.051496103
101	0x3c9f602e	0.019455042
102	0xbd165640	-0.03670335
103	0x3cd23d80	0.025664091
104	0xbcf06d44	-0.029348977
105	0x3c39a047	0.011329717
106	0x3ceb8c00	0.02875328
107	0x3c47166b	0.012151341
108	0x3cc0a663	0.02351684
109	0x3d11ca51	0.035593335
110	0xbc3016b6	-0.010747602
111	0x3bb5e3b8	0.005550828
112	0x3cc0628c	0.02348449
113	0x3bbf703c	0.005842237
114	0xbc954d52	-0.018225346
115	0x3c94cef2	0.018165085
116	0x3d03a671	0.032141153
117	0x3c4016ca	0.011724183
118	0xbd2d4998	-0.042306513
119	0xbd091687	-0.03346875
120	0xbd3b17e2	-0.045677073
121	0x3b9f38d6	0.0048590703
122	0xbd09e55a	-0.033665992
123	0xbcce682e	-0.025196161
124	0xbcb00d76	-0.021490794
125	0x3b5b1019	0.0033426343
126	0x3c7163f9	0.014733308
127	0xbca8e127	-0.020615174
128	0xbd17c51c	-0.037053213
129	0x3c080b43	0.008303466
130	0xbc0a34ff	-0.008435487
131	0xbccf7d6b	-0.025328359
132	0x3b933c09	0.0044932407
133	0xbcafc255	-0.02145497
134	0xbbb0e237	-0.0053980607
135	0xbbb30546	-0.005463275
136	0x3d2834d6	0.041066013
137	0xbc24c5ab	-0.010056893
138	0xbc92b814	-0.01791004
139	0xbba36e6c	-0.0049875285
140	0x3b406670	0.0029357933
141	0x3b860930	0.0040904507
142	0x3cfb2045	0.030655036
143	0x3c32922e	0.01089911
144	0x3ce244f8	0.027620777
145	0x3c8943a1	0.01675588
146	0xbc9ec8f6	-0.019382935
147	0xbc5c9c69	-0.013465025
148	0xbd749a65	-0.059717555
149	0xbd519a70	-0.051172674
150	0xbc312e2f	-0.010814234
151	0xbccbc763	-0.024875348
152	0xbcad3087	-0.021141304
153	0x3cdb14ee	0.026743378
154	0xbd173d27	-0.036923554
155	0xbd248c70	-0.040172994
156	0xbc940dc3	-0.018072968
157	0xbd30ea7b	-0.043192368
158	0x3c923fb7	0.017852647
159	0xbb043436	-0.0020172722
160	0xbca72c05	-0.020406732
161	0xbc5da48a	-0.013527999
162	0x3cfcf979	0.030880677
163	0x3d67e189	0.05661157
164	0xbb30586e	-0.0026908177
165	0x3d1fc5c4	0.039006963
166	0x3c5b80e5	0.01339743
167	0xbc4c92c3	-0.012486163
168	0x3d0f4117	0.034974184
169	0x3ca0bae6	0.01962037
170	0xbc290c9b	-0.010317947
171	0x3cdf8501	0.0272851
172	0xba74626a	-0.0009322526
173	0xbbe0660c	-0.0068481024
174	0xbd321883	-0.043480407
175	0xbcc76cf4	-0.024343945
176	0xbcee59e8	-0.029095605
177	0xbc57c750	-0.013170078
178	0xbd0b30e8	-0.033982188
179	0x3b41d907	0.0029578821
180	0xbb11f10f	-0.0022268926
181	0xbd001cdb	-0.03127752
182	0xbb27c386	-0.0025598719
183	0xbd2b18c1	-0.041771654
184	0xbcc62766	-0.024188709
185	0xbc376a37	-0.011194757
186	0xbc3d93d4	-0.0115708895
187	0x3d38a1d9	0.045076225
188	0x3ca656f1	0.020305129
189	0x3a6b35d2	0.00089725584
190	0x3d390760	0.04517305
191	0x3b6cd00c	0.0036134748
192	0x3ca311f7	0.019906027
193	0xbc6d034f	-0.014466121
194	0x3c6cb49d	0.014447358
195	0x3c9bd751	0.01902357
196	0x3cc8ee87	0.024527801
197	0x3be5aa23	0.0070088073
198	0xbcdd09ab	-0.02698215
199	0x3cf6e216	0.030137103
200	0xbd169168	-0.036759764
201	0xbd416c58	-0.047222465
202	0xbc8240f4	-0.015900113
203	0xbcc9880c	-0.024601005
204	0x3c557d10	0.0130303055
205	0x3cd64c56	0.026159447
206	0xbc2b1c23	-0.01044372
207	0xbce6ff03	-0.028197771
208	0xbd0f55b4	-0.034993842
209	0xbcc9d334	-0.024636842
210	0xbd2520b3	-0.040314388
211	0xbc794903	-0.015215161
212	0xbc00832f	-0.007843777
213	0xbca93409	-0.020654695
214	0x3d2add90	0.041715205
215	0x3d5f9f7d	0.05459546
216	0x3bca8673	0.0061805784
217	0xbc5477eb	-0.012968044
218	0x3d1b1e64	0.03787078
219	0x3c8d58b6	0.017254215
220	0x3d4a7467	0.049427416
221	0x3d333220	0.043748975
222	0xba5b09ed	-0.0008355666
223	0x3c87ec7a	0.016592253
224	0x3cbd3b1e	0.023099478
225	0x3cb5cee6	0.022193383
226	0xbd028da9	-0.03187338
227	0x3ca1ed03	0.019766336
228	0xbcd1cce0	-0.025610387
229	0xbceec3a1	-0.029146018
230	0xbd0f48d1	-0.034981553
231	0xbd0d7951	-0.034539524
232	0xbae58cf2	-0.0017513318
233	0x3d06b278	0.032885045
234	0x3c8e5e79	0.017379032
235	0x3b8dfa08	0.0043327846
236	0x3c15fd30	0.009154603
237	0x3ccb05c9	0.024783032
238	0xbcf84abc	-0.030309074
239	0xbc25731e	-0.010098247
240	0xbd212b48	-0.039347917
241	0x3d044e42	0.032301195
242	0x3cc46d54	0.023977913
243	0x3cf79763	0.030223554
244	0x39c5088a	0.0003758113
245	0xbb504671	-0.0031780268
246	0x3b54caf4	0.0032469602
247	0x3d6f6e36	0.058454715
248	0x3cba87c5	0.022769818
249	0x3cdc336a	0.026879985
250	0xbc2785d5	-0.010224779
251	0xbc64d09c	-0.013965752
252	0x3cdb5096	0.026771825
253	0x3b60eaa1	0.0034319537
254	0xbc11adf4	-0.008891571
255	0x3bc69db3	0.0060612797

bias f4 [256]
0	0x3ce52ec1	0.027976396
1	0xbd130229	-0.035890732
2	0x3c71b810	0.014753357
3	0x3c9293cc	0.01789274
4	0xbcb9f65a	-0.022700477
5	0x3cd90c40	0.026495099
6	0x3cd76d66	0.026297282
7	0xbc4b604d	-0.012413097
8	0x3cfc2a79	0.030781971
9	0xbba7894e	-0.0051128035
10	0xbce5bcff	-0.028044222
11	0xbd276dde	-0.040876262
12	0xbbc78e84	-0.0060899872
13	0x3c85ae7f	0.016318558
14	0xbb9a884f	-0.0047159563
15	0x3c51d276	0.012806525
16	0xba9d84af	-0.0012017692
17	0x3d25d3cc	0.04048519
18	0x3b864736	0.0040978445
19	0xbcf37d0e	-0.029722717
20	0x3b861adc	0.0040925574
21	0x3c138258	0.009003244
22	0xbcd2f6c7	-0.025752438
23	0xbccf3caa	-0.025297482
24	0xbca7de03	-0.020491606
25	0xbd07fb33	-0.033198547
26	0xbc4acf13	-0.012378472
27	0x3cd98ee3	0.026557392
28	0x3c54c9f5	0.012987603
29	0x3cd4bc3a	0.02596866
30	0x3abbfbae	0.0014341974
31	0x3c035ad7	0.008017263
32	0x3bf49a41	0.0074646776
33	0x3b322149	0.0027180484
34	0x3bb3f947	0.0054923627
35	0x3d11f20c	0.035631225
36	0x3a21ab44	0.0006167183
37	0x3d0ed560	0.03487146
38	0x3ba3c3de	0.0049977144
39	0x3c9cf11c	0.019157939
40	0xbc47f93d	-0.012205419
41	0xbb5bb1f2	-0.0033522812
42	0x3d13d9a6	0.036096238
43	0x3cfdeecb	0.030997654
44	0x3d0de760	0.034644485
45	0x3b81698a	0.003949349
46	0x3cd109da	0.025517393
47	0xbaac8a7d	-0.0013163831
48	0x3cbeaacb	0.0232748
49	0xbc9f0aab	-0.019414267
50	0x3ce5d859	0.028057264
51	0x3b44d7ee	0.003003593
52	0x3c9ec33e	0.019380208
53	0x3c1acb54	0.009447891
54	0xbc91426c	-0.017731868
55	0x3c7c6373	0.01540457
56	0xbc03dfb2	-0.008048939
57	0x3c82758a	0.015925188
58	0xbae5457b	-0.001749202
59	0xbcf25876	-0.029583197
60	0xbcc17019	-0.023613023
61	0xbc4e070d	-0.012574923
62	0x3cbe3838	0.023220167
63	0xbbcfea9b	-0.006345106
64	0x3ce3f682	0.027827505
65	0xbcf12cac	-0.029440247
66	0xbccb2633	-0.024798488
67	0xbc244f14	-0.010028619
68	0xbd0463b4	-0.032321647
69	0xbcc07b7e	-0.023496386
70	0x3c934c46	0.017980706
71	0x3d2e9163	0.04261912
72	0xbd051910	-0.032494605
73	0xbc037920	-0.008024484
74	0x3c9d30ea	0.019188363
75	0xbcde9994	-0.027172841
76	0x3d0758f3	0.033043813
77	0xb921ee5e	-0.00015442955
78	0xbc803725	-0.015651295
79	0xbc9cedc1	-0.019156339
80	0x3d66d317	0.056353655
81	0x3ce95fca	0.028488059
82	0xbc82eec9	-0.015983002
83	0x3d119e94	0.035551623
84	0x3cc0df93	0.023544108
85	0xbc606a3d	-0.013697204
86	0xbd28c553	-0.041203808
87	0xbb8a30d8	-0.0042172484
88	0xbcebe5de	-0.028796133
89	0xbcd5bfbc	-0.026092403
90	0x3bdf35f6	0.0068118526
91	0x3c15d51b	0.009145047
92	0xbca2158d	-0.019785667
93	0x3d09edb9	0.033673976
94	0x3cc6d4ce	0.024271395
95	0xbd04ae81	-0.032392982
96	0xbc8abeb7	-0.016936643
97	0xbbfd6d7f	-0.007734
98	0xbc92b9ac	-0.0179108
99	0xbb9982c7	-0.0046847793
100	0xbce51532	-0.027964208
101	0xbceea32f	-0.029130546
102	0xbcd303ff	-0.025758741
103	0x3cf54a46	0.029942643
104	0x3ce199c5	0.027539143
105	0xbc30e0de	-0.0107958
106	0xbcbfccb4	-0.02341304
107	0xbb8bd87b	-0.00426775
108	0x3c06544d	0.00819881
109	0x3cdf7878	0.027279124
110	0x3caaa99d	0.020832831
111	0x3d01fb92	0.031734057
112	0x3be5e85a	0.007016224
113	0x3cc0cc2c	0.023534857
114	0x3cf06835	0.029346565
115	0x3bdece79	0.006799516
116	0xbc786d05	-0.015162711
117	0xbc584e31	-0.013202236
118	0xbbc20f6d	-0.005922249
119	0xbc9dcab9	-0.019261705
120	0x3cfac623	0.030612057
121	0x3c504a5e	0.012713043
122	0xbbb3b1a0	-0.005483821
123	0xbcfa7aba	-0.030576099
124	0x3d0b645d	0.03403126
125	0xbcce2040	-0.025161862
126	0x3cc8c2e5	0.024506995
127	0xbd2428f8	-0.040078133
128	0xbcdbc788	-0.026828542
129	0xbb404b91	-0.0029341916
130	0xbc199f70	-0.009376392
131	0xbb6269c0	-0.0034547895
132	0xbd21201e	-0.03933727
133	0xbbe146a6	-0.006874877
134	0x3b250a13	0.0025183007
135	0xbb01efe8	-0.0019826833
136	0x3c9bba98	0.019009873
137	0x3d05ff83	0.032714378
138	0xbcdabe5e	-0.026702102
139	0xbd1a078b	-0.03760485
140	0xbbd2ede4	-0.00643705
141	0xbd0eaf28	-0.03483501
142	0x3c4ef562	0.012631746
143	0xbc668377	-0.01406943
144	0x3d1e7590	0.038686335
145	0xbcda018f	-0.026612071
146	0x3d025836	0.031822406
147	0x3ab0b00e	0.0013480203
148	0x3c9ed5fa	0.019389141
149	0xbcd4c897	-0.025974555
150	0xbc712993	-0.014719385
151	0xbcda77c9	-0.026668446
152	0xbc2f373c	-0.010694321
153	0xbc2a16fd	-0.010381457
154	0x3c2bf9ba	0.010496551
155	0xbc5a21b1	-0.013313697
156	0xbbac2171	-0.00525301
157	0x3c93a11f	0.018021164
158	0x399ad5ee	0.0002953256
159	0x3b849f46	0.004047307
160	0xbcb3fc14	-0.021970786
161	0xba87e70d	-0.0010368541
162	0xbd1294de	-0.035786502
163	0x3cfdfe87	0.031005157
164	0xbbcd12f4	-0.006258363
165	0x3cb6fd04	0.022337444
166	0xbbfe0b35	-0.007752801
167	0xbcb28491	-0.021791728
168	0x3b1f34f6	0.0024293042
169	0xbc1b1032	-0.0094643105
170	0x3b8480d7	0.004043679
171	0xbc703da7	-0.014663137
172	0xbc807f07	-0.015685571
173	0x3d19fea4	0.03759636
174	0xbcf0bb42	-0.029386166
175	0x3c8236b2	0.015895221
176	0xbd052bb8	-0.032512397
177	0xbceb8dec	-0.028754197
178	0xbc7535a5	-0.014966403
179	0xbb1cbc90	-0.0023916103
180	0xbbd4b141	-0.006490857
181	0x3d31b9f4	0.04339023
182	0xbc739d98	-0.014869116
183	0xbccb616b	-0.024826726
184	0xbc55b7cc	-0.013044309
185	0xbcfbd7d6	-0.030742567
186	0x3ade1b20	0.001694534
187	0x3a9cf661	0.0011975282
188	0x3cc2639f	0.023729144
189	0xbd09f103	-0.033677112
190	0xbc7d5ad3	-0.015463549
191	0xbd08b228	-0.033373028
192	0x3c086fa5	0.008327399
193	0xbc89753f	-0.01677954
194	0x3bb58830	0.0055399165
195	0xbc8d2013	-0.017227208
196	0xbc90d797	-0.017680926
197	0xbd4c7202	-0.049913414
198	0xbcf68603	-0.030093199
199	0xbd405b81	-0.046962265
200	0xbcf72955	-0.030171076
201	0x3d2364af	0.03989094
202	0xbc336dcd	-0.0109514715
203	0xbbfa6fe6	-0.007642734
204	0xbd02fa8f	-0.031977233
205	0xbbe18b3c	-0.006883053
206	0xbca8613d	-0.02055418
207	0x3d181b20	0.037135243
208	0xbceee95c	-0.029164009
209	0xbc976641	-0.018481376
210	0xbc8a12ea	-0.016854722
211	0x3caf4908	0.021397129
212	0x3cee3a49	0.029080527
213	0xbcd928a4	-0.026508637
214	0x3bccbd5d	0.00624816
215	0xbd161222	-0.036638387
216	0x3c9e9489	0.019357936
217	0xbc52d469	-0.012868025
218	0xbca96e25	-0.020682404
219	0xbce4add9	-0.027914928
220	0x3d3259b9	0.043542597
221	0xbc932374	-0.017961241
222	0xbc86e7b1	-0.016467901
223	0x3c95fc3f	0.018308757
224	0xbc7773d7	-0.015103302
225	0xbd12feea	-0.035887636
226	0xbbef544a	-0.007303749
227	0xbc5fd471	-0.01366149
228	0x3d0019c5	0.031274576
229	0xbd0d1762	-0.034446128
230	0xbccb4f09	-0.02481796
231	0xbd0df90f	-0.03466135
232	0xbc8bd105	-0.017067442
233	0x3be4ab68	0.006978441
234	0x3c6fa24a	0.014626095
235	0xbcc6fc38	-0.02429019
236	0xbcee5495	-0.029093066
237	0x3cbf79a2	0.023373429
238	0x3d0a6303	0.03378583
239	0x3b9dd418	0.0048165433
240	0xbbc35472	-0.0059609944
241	0x3b0ecf5a	0.0021791072
242	0x3d21cbd7	0.039501037
243	0xbc2ed1ba	-0.01067012
244	0xbd106355	-0.03525098
245	0xbc530969	-0.0128806615
246	0xbbae32a8	-0.0053160973
247	0x3a8abc90	0.001058476
248	0x3bb8cd05	0.0056396746
249	0x3b64d6eb	0.003491814
250	0x3d1ffec6	0.03906133
251	0xbc55561b	-0.013021017
252	0x3ce66781	0.028125526
253	0x3c6daee1	0.014507026
254	0xbad460f0	-0.0016203206
255	0x3ced2d36	0.028952222

weight f4 [128, 256]
0	0x3ccce117	0.025009675
1	0x3c4c0ab3	0.012453723
2	0xbc03058c	-0.007996928
3	0xbd2ece22	-0.042677052
4	0xbde1c949	-0.1102472
5	0xbcf91673	-0.030406212
6	0x3db87fb3	0.09008732
7	0x3cdce051	0.026962431
8	0x3d77c794	0.060493067
9	0x3c6f8d45	0.014621084
10	0x3cb5bc2d	0.022184456
11	0xbd75cdf6	-0.060010873
12	0x3ceab780	0.028651953
13	0xbd28f1d2	-0.041246243
14	0xbc2dd633	-0.010610151
15	0x3c9a21a5	0.018814871
16	0x3d9232a3	0.071385644
17	0x3db09bb4	0.08623448
18	0x3d9681fc	0.07349011
19	0x3b1ee32d	0.0024244294
20	0xbcb38417	-0.021913571
21	0xbd1b8531	-0.037968818
22	0xbd1da3fd	-0.03848647
23	0x3dd6828e	0.1047412
24	0x3ca733ff	0.020410536
25	0xbcf536f7	-0.029933436
26	0x3d80bfa6	0.06286554
27	0xbd3105c0	-0.043218374
28	0x3d5c662f	0.053808387
29	0x3dc4ea85	0.096150436
30	0xbc1a7c9c	-0.009429123
31	0xbba0483b	-0.004891423
32	0x3d37b314	0.044848517
33	0x3da88134	0.082277685
34	0xbd9cc3ec	-0.07654557
35	0x3aa8d6aa	0.0012881358
36	0x3cb0ede4	0.02159781
37	0x3d8c84b4	0.068612486
38	0xbbb1488f	-0.005410261
39	0x3d4700ca	0.048584737
40	0xbd729d9a	-0.05923233
41	0x3c548422	0.012970956
42	0x3d893a62	0.06700589
43	0xbd698685	-0.057013053
44	0xbcd8bec3	-0.02645815
45	0x3ba0d843	0.004908593
46	0xbbeb067c	-0.007172404
47	0x3d1bbdab	0.03802268
48	0xbd2da932	-0.042397685
49	0x3d711e79	0.05886695
50	0x3d163cc9	0.036679063
51	0x3d292ce0	0.04130256
52	0x3c83a457	0.016069574
53	0x3d88cbb4	0.06679478
54	0x3ccaa36a	0.024736125
55	0x3d6ac8a7	0.057320263
56	0xbd8f9e56	-0.07012622
57	0x3c927ed0	0.017882735
58	0x3c3ead15	0.011637946
59	0xbd77acb4	-0.060467437
60	0xbd4c7e4e	-0.04992514
61	0x3d656071	0.056000177
62	0xbdb37ecd	-0.0876442
63	0x3c9cc589	0.01913716
64	0x3d54b396	0.05192908
65	0x3c56b4f1	0.013104663
66	0xbd8eb835	-0.069687285
67	0x3d99802e	0.074951515
68	0xbd67a19b	-0.056550603
69	0xbd2eb06c	-0.042648718
70	0xbd436a2a	-0.047708668
71	0xbbf8f584	-0.007597627
72	0xbd15ddff	-0.036588665
73	0xbcdaac96	-0.026693624
74	0xbc70fcce	-0.014708711
75	0xbcb79fce	-0.022415068
76	0x3dd509fe	0.104022965
77	0x3ccfca60	0.025365055
78	0xbccb2ec2	-0.02480257
79	0x3c79af45	0.015239541
80	0x3df6fc90	0.12059891
81	0x3d2f64e9	0.042820845
82	0x3cb1efe9	0.021720843
83	0x3da2cf89	0.079497404
84	0xbd5dcd34	-0.054150775
85	0x3ccc4e4e	0.024939682
86	0xbd595f7b	-0.053069573
87	0xbcae1199	-0.021248626
88	0x3b8e3e60	0.004340932
89	0xbd11a3a0	-0.035556436
90	0x3d15285e	0.03641545
91	0xbc6d87f9	-0.01449775
92	0x3d1f12fa	0.038836457
93	0xbdc46680	-0.09589863
94	0x3ca54628	0.020175055
95	0xbcd73955	-0.026272455
96	0xbd468685	-0.04846813
97	0xbd553ff4	-0.052062944
98	0xbd5ccd71	-0.05390686
99	0xbaef120d	-0.0018239632
100	0x3d3f74ad	0.04674213
101	0x3d1daae1	0.03849304
102	0xbcc454c8	-0.023966208
103	0x3c9e165f	0.019297777
104	0xbd32e128	-0.043671757
105	0x3d446e72	0.04795689
106	0xbb37ad9e	-0.0028027068
107	0x3df575fa	0.11985393
108	0xbd8bf484	-0.06833747
109	0xbdc1a993	-0.09456172
110	0x3ca3e3d1	0.020006092
111	0x3d75d493	0.06001718
112	0x3d4a212d	0.049348045
113	0x3df817d9	0.121139236
114	0xbda4ad92	-0.080409184
115	0xbd0902d9	-0.03344998
116	0x3c892059	0.016739057
117	0x3cd887b4	0.026431896
118	0xbb8678ac	-0.0041037407
119	0x3bada357	0.0052990126
120	0x3d58c584	0.05292274
121	0x3c76811e	0.015045432
122	0x3d3aad06	0.045575164
123	0xbdbe31bf	-0.09286832
124	0x3d24c296	0.040224634
125	0x3801dd25	3.0961954e-05
126	0xbd79fdb7	-0.061032977
127	0xbcd42b62	-0.025899593
128	0xbd36db29	-0.0446426
129	0xbcc8cb6f	-0.024511067
130	0x3d1fa1ae	0.03897255
131	0x3b580972	0.0032964614
132	0xbd26d457	-0.040729847
133	0xbde391a2	-0.11111762
134	0xbd2cf65a	-0.042227127
135	0xb854ff45	-5.0782477e-05
136	0x3d611775	0.05495401
137	0xbd129597	-0.03578719
138	0x3d6fc451	0.05853683
139	0x3d56ea05	0.052469272
140	0xbd87c45c	-0.066292495
141	0xbc3d96ca	-0.011571595
142	0xbcf7c80c	-0.030246757
143	0x3d9031f8	0.07040781
144	0xbb9e8109	-0.0048371595
145	0xbcd22cf3	-0.0256562
146	0xbdac6d96	-0.08419339
147	0xbc9d8c7e	-0.019232031
148	0x3c52f1ff	0.012875079
149	0xbb6463bb	-0.0034849483
150	0xbca950a3	-0.020668333
151	0x3dbfb319	0.09360332
152	0x3d1eb136	0.03874322
153	0xbd6f090f	-0.05835825
154	0x3d14c40a	0.03631977
155	0xbc86081a	-0.016361285
156	0xbc311184	-0.010807399
157	0x3cd2d02e	0.025734033
158	0x3d1c65fd	0.0381832
159	0xbd8683ae	-0.06568085
160	0x3cd83f0f	0.026397256
161	0x3d0c6fb8	0.03428623
162	0x3c409293	0.011753696
163	0xbd273920	-0.040825963
164	0x3d068bfb	0.03284834
165	0xbda2175b	-0.07914611
166	0xbc925a1f	-0.017865239
167	0xbbbca4e8	-0.005756963
168	0x3c5fb094	0.013652939
169	0x3cd61644	0.026133664
170	0xbd569e6a	-0.05239717
171	0xbd31e390	-0.04342991
172	0xbe01ee68	-0.12688601
173	0x3d7ff628	0.062490612
174	0x3d41da18	0.04732713
175	0x3c22cea6	0.009936964
176	0x3d576522	0.052586682
177	0x3c02d9c9	0.007986494
178	0xbc631859	-0.013860785
179	0x3d23a043	0.03994776
180	0xbb9507c2	-0.004548044
181	0xbde3632e	-0.111029014
182	0x3d8f3870	0.069931865
183	0x3d52e193	0.051484656
184	0x3c3198e0	0.010839671
185	0xbd6cb016	-0.057785116
186	0xbc8b60a4	-0.017013855
187	0xbd787794	-0.060660914
188	0x3d5ff245	0.054674406
189	0xbc984881	-0.01858926
190	0xbc5036eb	-0.012708406
191	0x3d76a400	0.060214996
192	0xbdba7c39	-0.09105725
193	0x3cd371cd	0.0258111
194	0x3c5d0633	0.013490248
195	0xbc7f04e7	-0.015565134
196	0xbdabbdbd	-0.08385799
197	0x3d28dc2a	0.04122559
198	0xbc71f941	-0.014768899
199	0x3d94144a	0.07230432
200	0xbd213e20	-0.039365888
201	0x3cacd75b	0.021098783
202	0xbdb5cdda	-0.08877154
203	0x3d6c3f3f	0.057677504
204	0xbd36feee	-0.044676714
205	0x3c52b1df	0.012859791
206	0x3cc691cd	0.024239445
207	0x3d0e8e1c	0.034803495
208	0xbd5af9e7	-0.05346098
209	0x3ce470b4	0.027885772
210	0x3d71cbb7	0.05903217
211	0x3dc84aac	0.097798675
212	0xbd9708c2	-0.07374717
213	0xbd834d6c	-0.064112514
214	0xbd92694f	-0.07148992
215	0x39ab044b	0.0003261886
216	0xbd7946ba	-0.060858466
217	0x3d7b0cc0	0.061291456
218	0x3b89e3ea	0.0042080777
219	0xbc1248d6	-0.008928498
220	0x3c628ce4	0.013827536
221	0x3b7487c5	0.003731237
222	0x3c85903c	0.016304128
223	0x3daf14e7	0.08548909
224	0xbd3c4bb5	-0.045970637
225	0xbd03f2ef	-0.0322141
226	0xbcd994fe	-0.026560303
227	0xbd3663bb	-0.044528704
228	0x3c527216	0.012844583
229	0xbde2dc4d	-0.11077175
230	0xbde02c52	-0.109459534
231	0x3cc5a047	0.024124278
232	0xbd1e0c96	-0.03858622
233	0x3d72c4a1	0.05926955
234	0x3d015129	0.03157154
235	0xbd57e793	-0.05271108
236	0xbdb38a9b	-0.08766671
237	0xbd0b8e12	-0.034071036
238	0xbbd8fd0b	-0.006621962
239	0xbd40a1f0	-0.047029436
240	0xbc1454a7	-0.009053386
241	0x3d2cb97c	0.04216908
242	0x3d5b2902	0.053505905
243	0xbd66b3cb	-0.056323808
244	0xbc7b2246	-0.015327996
245	0xbc9bd1a2	-0.01902086
246	0xbbdcf09d	-0.0067425505
247	0x3d998d2d	0.0749763
248	0x3dc87cde	0.097894415
249	0xbcc0d156	-0.02353732
250	0x3def2359	0.11676664
251	0xbd2c317b	-0.042039376
252	0x3cc045f5	0.023470858
253	0xbcba390e	-0.022732284
254	0xbd231094	-0.039810732
255	0x3d035105	0.032059688

bias f4 [128]
0	0xbd05c8f3	-0.032662343
1	0xbbc63774	-0.006049091
2	0x3d840493	0.06446185
3	0x3cff4fc5	0.031165967
4	0x3d50b021	0.05094922
5	0x3cfd8df3	0.030951476
6	0x3b92c50d	0.0044790567
7	0x3d30e77b	0.043189507
8	0x3d2ccdfb	0.042188626
9	0xbd0e819f	-0.034791585
10	0xbcd43c25	-0.025907585
11	0xbd0257be	-0.03182196
12	0xbd062327	-0.032748368
13	0xbb95b58f	-0.0045687626
14	0xbd5731a9	-0.052537594
15	0xbc052739	-0.008127027
16	0x3cd3736b	0.025811872
17	0xbd4ebb5b	-0.050471645
18	0x3cc3c5c9	0.023898022
19	0xba43a8ad	-0.00074637943
20	0xbd3d921d	-0.046281923
21	0x3d194ada	0.0374249
22	0x3cc093f5	0.023508051
23	0xbc47f91b	-0.012205387
24	0x3c0b10df	0.008487909
25	0xbd0f1431	-0.034931365
26	0xb7d0b535	-2.4879913e-05
27	0xbd296053	-0.041351628
28	0xbc78a044	-0.015174929
29	0x3d166a85	0.03672268
30	0x3d78d0a1	0.06074584
31	0x3cf1dbef	0.029523818
32	0xbd162bcd	-0.036662865
33	0xbd2d2740	-0.04227376
34	0x3c99e18b	0.018784305
35	0x3d6bc4fa	0.0575609
36	0xbd0fc783	-0.03510238
37	0xbd6b531f	-0.057452317
38	0x3d47a439	0.0487406
39	0xbd55903b	-0.052139502
40	0xbd7638a6	-0.060112618
41	0x3d803cdb	0.06261607
42	0xbc3f6893	-0.011682647
43	0xbd751641	-0.059835676
44	0x3d258eb3	0.04041929
45	0xbd5bb208	-0.05363658
46	0xbcddd569	-0.027079301
47	0x3b1b27c8	0.0023674835
48	0xbd2438d1	-0.040093247
49	0xbd526535	-0.05136605
50	0x3d3c1510	0.045918524
51	0x3b59fa9b	0.0033260945
52	0x3d40015d	0.0468763
53	0xbbccd4f5	-0.0062509724
54	0xbd703fbe	-0.05865454
55	0x3c9354c5	0.017984757
56	0x3d6d4f8b	0.057937186
57	0x3cb13369	0.02163096
58	0x3c3cb224	0.011517081
59	0x3caa261f	0.02077013
60	0x3d480456	0.04883226
61	0xbcd012ef	-0.025399653
62	0x3baf6d84	0.0053536315
63	0xbc4361ab	-0.011925141
64	0x3bcbde0f	0.00622154
65	0xbc86a361	-0.016435327
66	0xbbbb8b04	-0.005723359
67	0xbcc2a6bc	-0.023761146
68	0x3d13ecaa	0.036114372
69	0x3d6b41c3	0.057435762
70	0xbd0389f8	-0.032114
71	0xbc62fd87	-0.013854391
72	0xbd6bf18b	-0.0576034
73	0xbd72a25e	-0.059236877
74	0x3d1642f8	0.03668496
75	0xbc91dc1a	-0.017805148
76	0x3c137059	0.008998954
77	0xbd527ec4	-0.051390424
78	0x3d23faae	0.04003399
79	0x3cf61eef	0.030044047
80	0x3d094326	0.033511303
81	0xbd0e8c77	-0.034801926
82	0xbcf35b5b	-0.029706648
83	0x3cab9c08	0.020948425
84	0x3d6715f8	0.056417435
85	0x3c96ec8a	0.018423337
86	0x3c264c96	0.010150095
87	0xbd39d25c	-0.04536663
88	0x3d227c57	0.03966936
89	0x3cde97fb	0.02717208
90	0x3c082a21	0.008310826
91	0x3ca5f40f	0.020257978
92	0x3c1b2242	0.009468617
93	0x3ca52807	0.020160688
94	0x3ce8d115	0.02842001
95	0x3cbd0042	0.023071412
96	0x3c085e92	0.008323329
97	0x3ce6135b	0.028085401
98	0x3d70c92e	0.05878561
99	0xbd0e86fc	-0.0347967
100	0xbd38770c	-0.045035407
101	0x3d7a957b	0.061177712
102	0xbd5f2381	-0.05447722
103	0x3d371d3f	0.044705626
104	0xbd4f291d	-0.050576318
105	0x3d35fbbb	0.044429522
106	0xbd1bd5c6	-0.038045667
107	0x3d80aee4	0.06283358
108	0x3d5fe658	0.054663032
109	0x3d5b5ec8	0.053557187
110	0xbd43cd21	-0.047803048
111	0x3c25adab	0.010112206
112	0x3d03f5f6	0.03221699
113	0x3c962a31	0.018330665
114	0x3d314a9d	0.043284047
115	0x3cf91963	0.030407613
116	0xbd6b710f	-0.057480868
117	0xbd012f06	-0.031538986
118	0x3d0069b8	0.03135082
119	0xb96b0637	-0.00022413662
120	0xbca86952	-0.020558033
121	0xbd78fc98	-0.060787767
122	0xbd690dd8	-0.056897968
123	0x3cdcb5d4	0.026942171
124	0x3d1a8c3f	0.037731405
125	0x3d7288c7	0.059212472
126	0x3c8eaa95	0.017415324
127	0xbd75f958	-0.060052246

weight f4 [10, 128]
0	0xbe54d694	-0.2078498
1	0xbd84a07d	-0.06475923
2	0xbe139f45	-0.14416225
3	0xbe9541d2	-0.2915178
4	0xbea12237	-0.31471416
5	0x3e93d9f2	0.28877217
6	0x3dccef39	0.100065656
7	0xbeeebaef	-0.46626994
8	0x3e3fe482	0.18739513
9	0x3e763a46	0.24045667
10	0x3e45f002	0.19329837
11	0x3e163b47	0.1467105
12	0xbe9d308d	-0.30701104
13	0x3e74da77	0.23911463
14	0x3deaed2b	0.114710175
15	0x3e8c2f80	0.2737999
16	0x3e44c5e2	0.19216111
17	0x3e4f5e72	0.20250872
18	0x3e1ec464	0.15504605
19	0x3d86de3b	0.06585356
20	0x3ed09207	0.4073641
21	0x3d46e2c4	0.048556104
22	0xbe85607d	-0.26050177
23	0x3e8f9981	0.28046802
24	0x3d48bd2d	0.049008537
25	0x3e7aedc9	0.2450477
26	0xbec420cf	-0.3830628
27	0xbcbf6086	-0.023361456
28	0x3e00c74a	0.12576023
29	0x3e50c404	0.20387274
30	0xbe558024	-0.20849663
31	0x3dc6753f	0.09690332
32	0x3e151be3	0.14561419
33	0x3ed5762a	0.41691715
34	0x3ddb19df	0.10698294
35	0x3e52c130	0.20581508
36	0x3e2487d8	0.16067445
37	0xbd96f9b6	-0.07371847
38	0xbe3a2d26	-0.18181285
39	0x3ee213e5	0.44155803
40	0xbe779d84	-0.24181181
41	0xbe3e78f7	-0.18600832
42	0xbe2ef1ea	-0.1708447
43	0xbd9bf32f	-0.07614743
44	0x3e180372	0.14845064
45	0xbe110738	-0.1416291
46	0xbcdd64fa	-0.027025688
47	0xbe6aca2f	-0.2292869
48	0x3d6bade9	0.0575389
49	0xbeaead89	-0.34116772
50	0xbe8e7fcc	-0.27831876
51	0x3ea04e7c	0.3130988
52	0x3dbfc9dd	0.09364674
53	0x3d61dfcf	0.05514508
54	0xbd67f798	-0.05663261
55	0xbdf08602	-0.1174431
56	0x3d1e59be	0.038659804
57	0xbdbc71b7	-0.09201377
58	0xbe9ecc5e	-0.31015295
59	0xbd28ba42	-0.041193254
60	0xbce96f20	-0.028495371
61	0x3e8767e0	0.26446438
62	0xbe3688e1	-0.17825653
63	0xbec9e23a	-0.3943041
64	0x3dd3ebcf	0.10347711
65	0x3e286408	0.16444409
66	0xbc963684	-0.018336542
67	0x3d5da9a0	0.054116845
68	0x3e70081a	0.2344059
69	0xbe97a6aa	-0.29619342
70	0xbe2b487b	-0.16726868
71	0x3e402490	0.18763947
72	0xbd03afa4	-0.032149926
73	0x3ab95a96	0.0014141377
74	0xbe5d6dac	-0.21623868
75	0xbe698fc9	-0.22808756
76	0x3e840547	0.25785276
77	0xbeaa66d1	-0.33281568
78	0xbd4b18cc	-0.049584195
79	0x3de1ce88	0.11025721
80	0xbc7ec078	-0.015548818
81	0xbeb8e217	-0.36109993
82	0x3e16abe9	0.14714016
83	0xbe9935e3	-0.29923925
84	0xbd1d40fe	-0.03839206
85	0xbe4c8d27	-0.1997572
86	0xbda13858	-0.07872075
87	0x3e80d1a4	0.25159943
88	0xbe511af1	-0.20420434
89	0x3dff9a73	0.12480631
90	0xbdcb3163	-0.09921529
91	0x3ebd0b19	0.3692253
92	0xbdb0aaaf	-0.08626305
93	0x3e4c5333	0.19953613
94	0xbe42dd78	-0.19029796
95	0x3e95730d	0.2918934
96	0xbd056966	-0.03257122
97	0xbda22683	-0.07917502
98	0xbdd1ed1f	-0.102503054
99	0xbcbe12d2	-0.023202334
100	0xbd607e57	-0.054807987
101	0xbd215549	-0.039387975
102	0x3d91bd8b	0.071162306
103	0xbe33b2f5	-0.17548735
104	0x3defaf33	0.117033385
105	0x3d7eff3a	0.06225512
106	0xbe27c650	-0.16384244
107	0x3db10425	0.08643369
108	0xbe42df0c	-0.19030398
109	0xbef2c1c3	-0.47413453
110	0x3e7a2f75	0.24432166
111	0xbd685fec	-0.056732103
112	0xbe00e172	-0.12586
113	0x3e52109e	0.20514151
114	0x3e90c1e2	0.2827292
115	0x3e888f31	0.26671746
116	0xbe9c84b2	-0.30569988
117	0x3d9cc0b0	0.0765394
118	0x3d5f7fe6	0.054565333
119	0xbdeceeee	-0.1156901
120	0xbe878a70	-0.26472807
121	0xbe2eec6f	-0.1708238
122	0x3de934e5	0.11387042
123	0xbdb99216	-0.09061067
124	0x3e4cc9b6	0.19998822
125	0x3cec4655	0.02884213
126	0x3d8f9083	0.07009985
127	0x3e2acf2d	0.16680594
128	0x3e7f13b4	0.2490986
129	0x3e22bd94	0.15892631
130	0xbd755189	-0.05989221
131	0x3e38c47f	0.18043707
132	0x3e0e652c	0.13905782
133	0xbe3958ec	-0.18100327
134	0xbe9e2ef5	-0.308952
135	0x3e13857c	0.14406389
136	0xbeb46c89	-0.35239056
137	0xbed57e8e	-0.41698116
138	0xbe7c51eb	-0.24640624
139	0xbe888454	-0.26663458
140	0xbd50893f	-0.050912138
141	0xbe983508	-0.2972796
142	0x3d7d0059	0.06176791
143	0x3bce8145	0.006302031
144	0xbe9157c6	-0.28387278
145	0xbe205282	-0.15656474
146	0x3ea6a982	0.325512
147	0xbea5b2d5	-0.32363
148	0xbebaad3c	-0.36460292
149	0xbc47bca9	-0.012190976
150	0x3e31ea66	0.17374572
151	0xbdab33f9	-0.08359522
152	0x3df429fe	0.11922072
153	0xbec64d6c	-0.38730943
154	0x3e450012	0.19238308
155	0x3d00189b	0.031273466
156	0x3e8091d1	0.2511125
157	0xbdad47df	-0.08460974
158	0x3dda7db8	0.1066851
159	0x3d15e5d6	0.03659614
160	0xbe4a67c1	-0.19766141
161	0xbebaa800	-0.364563
162	0xbc0ee2c1	-0.0087210545
163	0xbea99306	-0.33119982
164	0x3e32ba03	0.1745377
165	0xbe2dd88d	-0.16977139
166	0xbc23c164	-0.009994838
167	0xbe7cf79c	-0.2470383
168	0x3e524fe9	0.20538296
169	0x3eb4f66b	0.35344252
170	0x3ea12539	0.3147371
171	0x3ebabb68	0.36471105
172	0x3e1fcf97	0.15606533
173	0xbe538152	-0.206548
174	0x3e1e0712	0.15432385
175	0x3dd4f261	0.103977926
176	0x3dd74818	0.10511798
177	0x3ea82821	0.32843116
178	0xbb3c8559	-0.0028766005
179	0xbe3ebb5d	-0.18626161
180	0xbe018377	-0.12647806
181	0x3ca6a0a1	0.020340266
182	0x3e0cdbbe	0.137557
183	0x3e38eb5e	0.18058535
184	0x3e495167	0.19659959
185	0xbd23eff6	-0.040023766
186	0x3eed5645	0.4635488
187	0x3db64cbe	0.08901356
188	0xbc103963	-0.008802745
189	0xbe2007f6	-0.15628037
190	0xbd95a6b2	-0.07307185
191	0x3e8feb53	0.28109226
192	0x3b481675	0.0030530964
193	0xbd5fe442	-0.054661043
194	0x3e7e2424	0.24818474
195	0x3e232b0e	0.15934393
196	0x3ccfbb8c	0.025357984
197	0xbe04543d	-0.1292276
198	0x3c12a94b	0.008951495
199	0xbe235324	-0.15949684
200	0x3d9f119f	0.07767033
201	0xbe9bc669	-0.30424812
202	0x3ea06e92	0.31334358
203	0x3e548f5e	0.20757815
204	0x3e615732	0.22005919
205	0x3ea1d638	0.31608748
206	0x3ddca899	0.10774345
207	0x3d8f760e	0.07004939
208	0xbe379a28	-0.179299
209	0xbea42ab2	-0.32063824
210	0xbeaef021	-0.3416758
211	0x3e468cfd	0.1938972
212	0x3d61da90	0.055140078
213	0x3ccb06d5	0.024783531
214	0xbd8d308c	-0.06894025
215	0xbd2c41d8	-0.04205498
216	0x3e96ae74	0.29429972
217	0xbdf79b32	-0.12090148
218	0x3dcb3627	0.09922438
219	0xbec529e1	-0.38508514
220	0xbe39422e	-0.18091652
221	0xbe744e55	-0.23858006
222	0x3e5f1322	0.21784642
223	0x3e2233ef	0.15840124
224	0xbd7d9287	-0.061907317
225	0x3e3f87bc	0.18704122
226	0xbe2e56b9	-0.1702527
227	0x3d4db52d	0.05022161
228	0xbdfdb332	-0.123876944
229	0x3c4d39a6	0.0125259515
230	0xbe556029	-0.20837463
231	0xbe7a302f	-0.24432443
232	0xbe9560f1	-0.29175523
233	0x3dbfa46c	0.09357533
234	0x3e816ce8	0.252784
235	0xbe0748f1	-0.13211419
236	0x3e16970d	0.14706059
237	0x3e7824a2	0.24232724
238	0x3e909d62	0.28245074
239	0x3da5efe6	0.081023976
240	0x3dee0514	0.11622062
241	0x3cd63468	0.026148036
242	0xbea34a27	-0.3189251
243	0x3d698092	0.05700738
244	0x3e2c8c61	0.16850425
245	0xbc92d67c	-0.01792454
246	0xbdb9ff59	-0.09081907
247	0xbd23afb0	-0.03996247
248	0x3e38bab6	0.18039975
249	0x3e99c9e9	0.30036858
250	0xbd8508bb	-0.06495806
251	0x3e0e72eb	0.13911025
252	0xbd131168	-0.03590527
253	0xbe7527d0	-0.23940969
254	0x3bca9b1c	0.0061830413
255	0xbc90be6b	-0.017668923

bias f4 [10]
0	0x3d57c071	0.05267376
1	0x3d89e262	0.06732632
2	0xbd954a52	-0.07289566
3	0xbc412260	-0.011787981
4	0xbd6be0dc	-0.05758749
5	0x3dc08237	0.093998365
6	0xbd98d445	-0.07462362
7	0x3cc9181d	0.02454763
8	0xbdc71cc1	-0.09722281
9	0x3d9271bd	0.071506
